…
  WARMUP_FACTOR: 0.3333333333333333
  WARMUP_ITERS: 500
  WARMUP_METHOD: linear
  WEIGHT_DECAY: 0.0001
  WEIGHT_DECAY_BIAS: 0
TEST:
  BBOX_AUG:
    ENABLED: False
    H_FLIP: False
    MAX_SIZE: 4000
    SCALES: ()
    SCALE_H_FLIP: False
  DETECTIONS_PER_IMG: 300
  EXPECTED_RESULTS: []
  EXPECTED_RESULTS_SIGMA_TOL: 4
  IMS_PER_BATCH: 1
  VIS_THR: 0.55
2022-02-11 16:59:16,077 stft_core INFO: Saving config into: log_dir/sun/config.yml
2022-02-11 16:59:18,454 stft_core INFO: 
model:
GeneralizedRCNNSTFT(
  (backbone): Sequential(
    (body): ResNet(
      (stem): StemWithFixedBatchNorm(
        (conv1): Conv2d(3, 64, kernel_size=(7, 7), stride=(2, 2), padding=(3, 3), bias=False)
        (bn1): FrozenBatchNorm2d()
      )
      (layer1): Sequential(
        (0): BottleneckWithFixedBatchNorm(
          (downsample): Sequential(
            (0): Conv2d(64, 256, kernel_size=(1, 1), stride=(1, 1), bias=False)
            (1): FrozenBatchNorm2d()
          )
          (conv1): Conv2d(64, 64, kernel_size=(1, 1), stride=(1, 1), bias=False)
          (bn1): FrozenBatchNorm2d()
          (conv2): Conv2d(64, 64, kernel_size=(3, 3), stride=(1, 1), padding=(1, 1), bias=False)
          (bn2): FrozenBatchNorm2d()
          (conv3): Conv2d(64, 256, kernel_size=(1, 1), stride=(1, 1), bias=False)
          (bn3): FrozenBatchNorm2d()
        )
        (1): BottleneckWithFixedBatchNorm(
          (conv1): Conv2d(256, 64, kernel_size=(1, 1), stride=(1, 1), bias=False)
          (bn1): FrozenBatchNorm2d()
          (conv2): Conv2d(64, 64, kernel_size=(3, 3), stride=(1, 1), padding=(1, 1), bias=False)
          (bn2): FrozenBatchNorm2d()
          (conv3): Conv2d(64, 256, kernel_size=(1, 1), stride=(1, 1), bias=False)
          (bn3): FrozenBatchNorm2d()
        )
        (2): BottleneckWithFixedBatchNorm(
          (conv1): Conv2d(256, 64, kernel_size=(1, 1), stride=(1, 1), bias=False)
          (bn1): FrozenBatchNorm2d()
          (conv2): Conv2d(64, 64, kernel_size=(3, 3), stride=(1, 1), padding=(1, 1), bias=False)
          (bn2): FrozenBatchNorm2d()
          (conv3): Conv2d(64, 256, kernel_size=(1, 1), stride=(1, 1), bias=False)
          (bn3): FrozenBatchNorm2d()
        )
      )
      (layer2): Sequential(
        (0): BottleneckWithFixedBatchNorm(
          (downsample): Sequential(
            (0): Conv2d(256, 512, kernel_size=(1, 1), stride=(2, 2), bias=False)
            (1): FrozenBatchNorm2d()
          )
          (conv1): Conv2d(256, 128, kernel_size=(1, 1), stride=(2, 2), bias=False)
          (bn1): FrozenBatchNorm2d()
          (conv2): DFConv2d(
            (offset): Conv2d(128, 18, kernel_size=(3, 3), stride=(1, 1), padding=(1, 1))
            (conv): DeformConv(in_channels=128, out_channels=128, kernel_size=(3, 3), stride=(1, 1), dilation=(1, 1), padding=(1, 1), groups=1, deformable_groups=1, bias=False)
          )
          (bn2): FrozenBatchNorm2d()
          (conv3): Conv2d(128, 512, kernel_size=(1, 1), stride=(1, 1), bias=False)
          (bn3): FrozenBatchNorm2d()
          (context_block): ContextBlock(
            (conv_mask): Conv2d(512, 1, kernel_size=(1, 1), stride=(1, 1))
            (softmax): Softmax(dim=2)
            (channel_add_conv): Sequential(
              (0): Conv2d(512, 128, kernel_size=(1, 1), stride=(1, 1))
              (1): LayerNorm((128, 1, 1), eps=1e-05, elementwise_affine=True)
              (2): ReLU(inplace=True)
              (3): Conv2d(128, 512, kernel_size=(1, 1), stride=(1, 1))
            )
          )
        )
        (1): BottleneckWithFixedBatchNorm(
          (conv1): Conv2d(512, 128, kernel_size=(1, 1), stride=(1, 1), bias=False)
          (bn1): FrozenBatchNorm2d()
          (conv2): DFConv2d(
            (offset): Conv2d(128, 18, kernel_size=(3, 3), stride=(1, 1), padding=(1, 1))
            (conv): DeformConv(in_channels=128, out_channels=128, kernel_size=(3, 3), stride=(1, 1), dilation=(1, 1), padding=(1, 1), groups=1, deformable_groups=1, bias=False)
          )
          (bn2): FrozenBatchNorm2d()
          (conv3): Conv2d(128, 512, kernel_size=(1, 1), stride=(1, 1), bias=False)
          (bn3): FrozenBatchNorm2d()
          (context_block): ContextBlock(
            (conv_mask): Conv2d(512, 1, kernel_size=(1, 1), stride=(1, 1))
            (softmax): Softmax(dim=2)
            (channel_add_conv): Sequential(
              (0): Conv2d(512, 128, kernel_size=(1, 1), stride=(1, 1))
              (1): LayerNorm((128, 1, 1), eps=1e-05, elementwise_affine=True)
              (2): ReLU(inplace=True)
              (3): Conv2d(128, 512, kernel_size=(1, 1), stride=(1, 1))
            )
          )
        )
        (2): BottleneckWithFixedBatchNorm(
          (conv1): Conv2d(512, 128, kernel_size=(1, 1), stride=(1, 1), bias=False)
          (bn1): FrozenBatchNorm2d()
          (conv2): DFConv2d(
            (offset): Conv2d(128, 18, kernel_size=(3, 3), stride=(1, 1), padding=(1, 1))
            (conv): DeformConv(in_channels=128, out_channels=128, kernel_size=(3, 3), stride=(1, 1), dilation=(1, 1), padding=(1, 1), groups=1, deformable_groups=1, bias=False)
          )
          (bn2): FrozenBatchNorm2d()
          (conv3): Conv2d(128, 512, kernel_size=(1, 1), stride=(1, 1), bias=False)
          (bn3): FrozenBatchNorm2d()
          (context_block): ContextBlock(
            (conv_mask): Conv2d(512, 1, kernel_size=(1, 1), stride=(1, 1))
            (softmax): Softmax(dim=2)
            (channel_add_conv): Sequential(
              (0): Conv2d(512, 128, kernel_size=(1, 1), stride=(1, 1))
              (1): LayerNorm((128, 1, 1), eps=1e-05, elementwise_affine=True)
              (2): ReLU(inplace=True)
              (3): Conv2d(128, 512, kernel_size=(1, 1), stride=(1, 1))
            )
          )
        )
        (3): BottleneckWithFixedBatchNorm(
          (conv1): Conv2d(512, 128, kernel_size=(1, 1), stride=(1, 1), bias=False)
          (bn1): FrozenBatchNorm2d()
          (conv2): DFConv2d(
            (offset): Conv2d(128, 18, kernel_size=(3, 3), stride=(1, 1), padding=(1, 1))
            (conv): DeformConv(in_channels=128, out_channels=128, kernel_size=(3, 3), stride=(1, 1), dilation=(1, 1), padding=(1, 1), groups=1, deformable_groups=1, bias=False)
          )
          (bn2): FrozenBatchNorm2d()
          (conv3): Conv2d(128, 512, kernel_size=(1, 1), stride=(1, 1), bias=False)
          (bn3): FrozenBatchNorm2d()
          (context_block): ContextBlock(
            (conv_mask): Conv2d(512, 1, kernel_size=(1, 1), stride=(1, 1))
            (softmax): Softmax(dim=2)
            (channel_add_conv): Sequential(
              (0): Conv2d(512, 128, kernel_size=(1, 1), stride=(1, 1))
              (1): LayerNorm((128, 1, 1), eps=1e-05, elementwise_affine=True)
              (2): ReLU(inplace=True)
              (3): Conv2d(128, 512, kernel_size=(1, 1), stride=(1, 1))
            )
          )
        )
      )
      (layer3): Sequential(
        (0): BottleneckWithFixedBatchNorm(
          (downsample): Sequential(
            (0): Conv2d(512, 1024, kernel_size=(1, 1), stride=(2, 2), bias=False)
            (1): FrozenBatchNorm2d()
          )
          (conv1): Conv2d(512, 256, kernel_size=(1, 1), stride=(2, 2), bias=False)
          (bn1): FrozenBatchNorm2d()
          (conv2): DFConv2d(
            (offset): Conv2d(256, 18, kernel_size=(3, 3), stride=(1, 1), padding=(1, 1))
            (conv): DeformConv(in_channels=256, out_channels=256, kernel_size=(3, 3), stride=(1, 1), dilation=(1, 1), padding=(1, 1), groups=1, deformable_groups=1, bias=False)
          )
          (bn2): FrozenBatchNorm2d()
          (conv3): Conv2d(256, 1024, kernel_size=(1, 1), stride=(1, 1), bias=False)
          (bn3): FrozenBatchNorm2d()
          (context_block): ContextBlock(
            (conv_mask): Conv2d(1024, 1, kernel_size=(1, 1), stride=(1, 1))
            (softmax): Softmax(dim=2)
            (channel_add_conv): Sequential(
              (0): Conv2d(1024, 256, kernel_size=(1, 1), stride=(1, 1))
              (1): LayerNorm((256, 1, 1), eps=1e-05, elementwise_affine=True)
              (2): ReLU(inplace=True)
              (3): Conv2d(256, 1024, kernel_size=(1, 1), stride=(1, 1))
            )
          )
        )
        (1): BottleneckWithFixedBatchNorm(
          (conv1): Conv2d(1024, 256, kernel_size=(1, 1), stride=(1, 1), bias=False)
          (bn1): FrozenBatchNorm2d()
          (conv2): DFConv2d(
            (offset): Conv2d(256, 18, kernel_size=(3, 3), stride=(1, 1), padding=(1, 1))
            (conv): DeformConv(in_channels=256, out_channels=256, kernel_size=(3, 3), stride=(1, 1), dilation=(1, 1), padding=(1, 1), groups=1, deformable_groups=1, bias=False)
          )
          (bn2): FrozenBatchNorm2d()
          (conv3): Conv2d(256, 1024, kernel_size=(1, 1), stride=(1, 1), bias=False)
          (bn3): FrozenBatchNorm2d()
          (context_block): ContextBlock(
            (conv_mask): Conv2d(1024, 1, kernel_size=(1, 1), stride=(1, 1))
            (softmax): Softmax(dim=2)
            (channel_add_conv): Sequential(
              (0): Conv2d(1024, 256, kernel_size=(1, 1), stride=(1, 1))
              (1): LayerNorm((256, 1, 1), eps=1e-05, elementwise_affine=True)
              (2): ReLU(inplace=True)
              (3): Conv2d(256, 1024, kernel_size=(1, 1), stride=(1, 1))
            )
          )
        )
        (2): BottleneckWithFixedBatchNorm(
          (conv1): Conv2d(1024, 256, kernel_size=(1, 1), stride=(1, 1), bias=False)
          (bn1): FrozenBatchNorm2d()
          (conv2): DFConv2d(
            (offset): Conv2d(256, 18, kernel_size=(3, 3), stride=(1, 1), padding=(1, 1))
            (conv): DeformConv(in_channels=256, out_channels=256, kernel_size=(3, 3), stride=(1, 1), dilation=(1, 1), padding=(1, 1), groups=1, deformable_groups=1, bias=False)
          )
          (bn2): FrozenBatchNorm2d()
          (conv3): Conv2d(256, 1024, kernel_size=(1, 1), stride=(1, 1), bias=False)
          (bn3): FrozenBatchNorm2d()
          (context_block): ContextBlock(
            (conv_mask): Conv2d(1024, 1, kernel_size=(1, 1), stride=(1, 1))
            (softmax): Softmax(dim=2)
            (channel_add_conv): Sequential(
              (0): Conv2d(1024, 256, kernel_size=(1, 1), stride=(1, 1))
              (1): LayerNorm((256, 1, 1), eps=1e-05, elementwise_affine=True)
              (2): ReLU(inplace=True)
              (3): Conv2d(256, 1024, kernel_size=(1, 1), stride=(1, 1))
            )
          )
        )
        (3): BottleneckWithFixedBatchNorm(
          (conv1): Conv2d(1024, 256, kernel_size=(1, 1), stride=(1, 1), bias=False)
          (bn1): FrozenBatchNorm2d()
          (conv2): DFConv2d(
            (offset): Conv2d(256, 18, kernel_size=(3, 3), stride=(1, 1), padding=(1, 1))
            (conv): DeformConv(in_channels=256, out_channels=256, kernel_size=(3, 3), stride=(1, 1), dilation=(1, 1), padding=(1, 1), groups=1, deformable_groups=1, bias=False)
          )
          (bn2): FrozenBatchNorm2d()
          (conv3): Conv2d(256, 1024, kernel_size=(1, 1), stride=(1, 1), bias=False)
          (bn3): FrozenBatchNorm2d()
          (context_block): ContextBlock(
            (conv_mask): Conv2d(1024, 1, kernel_size=(1, 1), stride=(1, 1))
            (softmax): Softmax(dim=2)
            (channel_add_conv): Sequential(
              (0): Conv2d(1024, 256, kernel_size=(1, 1), stride=(1, 1))
              (1): LayerNorm((256, 1, 1), eps=1e-05, elementwise_affine=True)
              (2): ReLU(inplace=True)
              (3): Conv2d(256, 1024, kernel_size=(1, 1), stride=(1, 1))
            )
          )
        )
        (4): BottleneckWithFixedBatchNorm(
          (conv1): Conv2d(1024, 256, kernel_size=(1, 1), stride=(1, 1), bias=False)
          (bn1): FrozenBatchNorm2d()
          (conv2): DFConv2d(
            (offset): Conv2d(256, 18, kernel_size=(3, 3), stride=(1, 1), padding=(1, 1))
            (conv): DeformConv(in_channels=256, out_channels=256, kernel_size=(3, 3), stride=(1, 1), dilation=(1, 1), padding=(1, 1), groups=1, deformable_groups=1, bias=False)
          )
          (bn2): FrozenBatchNorm2d()
          (conv3): Conv2d(256, 1024, kernel_size=(1, 1), stride=(1, 1), bias=False)
          (bn3): FrozenBatchNorm2d()
          (context_block): ContextBlock(
            (conv_mask): Conv2d(1024, 1, kernel_size=(1, 1), stride=(1, 1))
            (softmax): Softmax(dim=2)
            (channel_add_conv): Sequential(
              (0): Conv2d(1024, 256, kernel_size=(1, 1), stride=(1, 1))
              (1): LayerNorm((256, 1, 1), eps=1e-05, elementwise_affine=True)
              (2): ReLU(inplace=True)
              (3): Conv2d(256, 1024, kernel_size=(1, 1), stride=(1, 1))
            )
          )
        )
        (5): BottleneckWithFixedBatchNorm(
          (conv1): Conv2d(1024, 256, kernel_size=(1, 1), stride=(1, 1), bias=False)
          (bn1): FrozenBatchNorm2d()
          (conv2): DFConv2d(
            (offset): Conv2d(256, 18, kernel_size=(3, 3), stride=(1, 1), padding=(1, 1))
            (conv): DeformConv(in_channels=256, out_channels=256, kernel_size=(3, 3), stride=(1, 1), dilation=(1, 1), padding=(1, 1), groups=1, deformable_groups=1, bias=False)
          )
          (bn2): FrozenBatchNorm2d()
          (conv3): Conv2d(256, 1024, kernel_size=(1, 1), stride=(1, 1), bias=False)
          (bn3): FrozenBatchNorm2d()
          (context_block): ContextBlock(
            (conv_mask): Conv2d(1024, 1, kernel_size=(1, 1), stride=(1, 1))
            (softmax): Softmax(dim=2)
            (channel_add_conv): Sequential(
              (0): Conv2d(1024, 256, kernel_size=(1, 1), stride=(1, 1))
              (1): LayerNorm((256, 1, 1), eps=1e-05, elementwise_affine=True)
              (2): ReLU(inplace=True)
              (3): Conv2d(256, 1024, kernel_size=(1, 1), stride=(1, 1))
            )
          )
        )
      )
      (layer4): Sequential(
        (0): BottleneckWithFixedBatchNorm(
          (downsample): Sequential(
            (0): Conv2d(1024, 2048, kernel_size=(1, 1), stride=(2, 2), bias=False)
            (1): FrozenBatchNorm2d()
          )
          (conv1): Conv2d(1024, 512, kernel_size=(1, 1), stride=(2, 2), bias=False)
          (bn1): FrozenBatchNorm2d()
          (conv2): DFConv2d(
            (offset): Conv2d(512, 18, kernel_size=(3, 3), stride=(1, 1), padding=(1, 1))
            (conv): DeformConv(in_channels=512, out_channels=512, kernel_size=(3, 3), stride=(1, 1), dilation=(1, 1), padding=(1, 1), groups=1, deformable_groups=1, bias=False)
          )
          (bn2): FrozenBatchNorm2d()
          (conv3): Conv2d(512, 2048, kernel_size=(1, 1), stride=(1, 1), bias=False)
          (bn3): FrozenBatchNorm2d()
          (context_block): ContextBlock(
            (conv_mask): Conv2d(2048, 1, kernel_size=(1, 1), stride=(1, 1))
            (softmax): Softmax(dim=2)
            (channel_add_conv): Sequential(
              (0): Conv2d(2048, 512, kernel_size=(1, 1), stride=(1, 1))
              (1): LayerNorm((512, 1, 1), eps=1e-05, elementwise_affine=True)
              (2): ReLU(inplace=True)
              (3): Conv2d(512, 2048, kernel_size=(1, 1), stride=(1, 1))
            )
          )
        )
        (1): BottleneckWithFixedBatchNorm(
          (conv1): Conv2d(2048, 512, kernel_size=(1, 1), stride=(1, 1), bias=False)
          (bn1): FrozenBatchNorm2d()
          (conv2): DFConv2d(
            (offset): Conv2d(512, 18, kernel_size=(3, 3), stride=(1, 1), padding=(1, 1))
            (conv): DeformConv(in_channels=512, out_channels=512, kernel_size=(3, 3), stride=(1, 1), dilation=(1, 1), padding=(1, 1), groups=1, deformable_groups=1, bias=False)
          )
          (bn2): FrozenBatchNorm2d()
          (conv3): Conv2d(512, 2048, kernel_size=(1, 1), stride=(1, 1), bias=False)
          (bn3): FrozenBatchNorm2d()
          (context_block): ContextBlock(
            (conv_mask): Conv2d(2048, 1, kernel_size=(1, 1), stride=(1, 1))
            (softmax): Softmax(dim=2)
            (channel_add_conv): Sequential(
              (0): Conv2d(2048, 512, kernel_size=(1, 1), stride=(1, 1))
              (1): LayerNorm((512, 1, 1), eps=1e-05, elementwise_affine=True)
              (2): ReLU(inplace=True)
              (3): Conv2d(512, 2048, kernel_size=(1, 1), stride=(1, 1))
            )
          )
        )
        (2): BottleneckWithFixedBatchNorm(
          (conv1): Conv2d(2048, 512, kernel_size=(1, 1), stride=(1, 1), bias=False)
          (bn1): FrozenBatchNorm2d()
          (conv2): DFConv2d(
            (offset): Conv2d(512, 18, kernel_size=(3, 3), stride=(1, 1), padding=(1, 1))
            (conv): DeformConv(in_channels=512, out_channels=512, kernel_size=(3, 3), stride=(1, 1), dilation=(1, 1), padding=(1, 1), groups=1, deformable_groups=1, bias=False)
          )
          (bn2): FrozenBatchNorm2d()
          (conv3): Conv2d(512, 2048, kernel_size=(1, 1), stride=(1, 1), bias=False)
          (bn3): FrozenBatchNorm2d()
          (context_block): ContextBlock(
            (conv_mask): Conv2d(2048, 1, kernel_size=(1, 1), stride=(1, 1))
            (softmax): Softmax(dim=2)
            (channel_add_conv): Sequential(
              (0): Conv2d(2048, 512, kernel_size=(1, 1), stride=(1, 1))
              (1): LayerNorm((512, 1, 1), eps=1e-05, elementwise_affine=True)
              (2): ReLU(inplace=True)
              (3): Conv2d(512, 2048, kernel_size=(1, 1), stride=(1, 1))
            )
          )
        )
      )
    )
    (fpn): FPN(
      (fpn_inner2): Conv2d(512, 256, kernel_size=(1, 1), stride=(1, 1))
      (fpn_layer2): Conv2d(256, 256, kernel_size=(3, 3), stride=(1, 1), padding=(1, 1))
      (fpn_inner3): Conv2d(1024, 256, kernel_size=(1, 1), stride=(1, 1))
      (fpn_layer3): Conv2d(256, 256, kernel_size=(3, 3), stride=(1, 1), padding=(1, 1))
      (fpn_inner4): Conv2d(2048, 256, kernel_size=(1, 1), stride=(1, 1))
      (fpn_layer4): Conv2d(256, 256, kernel_size=(3, 3), stride=(1, 1), padding=(1, 1))
      (top_blocks): LastLevelP6P7(
        (p6): Conv2d(256, 256, kernel_size=(3, 3), stride=(2, 2), padding=(1, 1))
        (p7): Conv2d(256, 256, kernel_size=(3, 3), stride=(2, 2), padding=(1, 1))
      )
    )
  )
  (rpn): STFTFCOSModule(
    (head): STFTFCOSHead(
      (cls_tower): Sequential(
        (0): Conv2d(256, 256, kernel_size=(3, 3), stride=(1, 1), padding=(1, 1))
        (1): GroupNorm(32, 256, eps=1e-05, affine=True)
        (2): ReLU()
        (3): Conv2d(256, 256, kernel_size=(3, 3), stride=(1, 1), padding=(1, 1))
        (4): GroupNorm(32, 256, eps=1e-05, affine=True)
        (5): ReLU()
        (6): Conv2d(256, 256, kernel_size=(3, 3), stride=(1, 1), padding=(1, 1))
        (7): GroupNorm(32, 256, eps=1e-05, affine=True)
        (8): ReLU()
        (9): Conv2d(256, 256, kernel_size=(3, 3), stride=(1, 1), padding=(1, 1))
        (10): GroupNorm(32, 256, eps=1e-05, affine=True)
        (11): ReLU()
      )
      (bbox_tower): Sequential(
        (0): Conv2d(256, 256, kernel_size=(3, 3), stride=(1, 1), padding=(1, 1))
        (1): GroupNorm(32, 256, eps=1e-05, affine=True)
        (2): ReLU()
        (3): Conv2d(256, 256, kernel_size=(3, 3), stride=(1, 1), padding=(1, 1))
        (4): GroupNorm(32, 256, eps=1e-05, affine=True)
        (5): ReLU()
        (6): Conv2d(256, 256, kernel_size=(3, 3), stride=(1, 1), padding=(1, 1))
        (7): GroupNorm(32, 256, eps=1e-05, affine=True)
        (8): ReLU()
        (9): Conv2d(256, 256, kernel_size=(3, 3), stride=(1, 1), padding=(1, 1))
        (10): GroupNorm(32, 256, eps=1e-05, affine=True)
        (11): ReLU()
      )
      (cls_logits): Conv2d(256, 1, kernel_size=(3, 3), stride=(1, 1), padding=(1, 1))
      (bbox_pred): Conv2d(256, 4, kernel_size=(3, 3), stride=(1, 1), padding=(1, 1))
      (centerness): Conv2d(256, 1, kernel_size=(3, 3), stride=(1, 1), padding=(1, 1))
      (dcn_cls_subnet): SFTBranch(
        (conv_offset): Conv2d(4, 72, kernel_size=(1, 1), stride=(1, 1), bias=False)
        (conv_adaption): DeformConv(in_channels=256, out_channels=256, kernel_size=(3, 3), stride=(1, 1), dilation=(1, 1), padding=(1, 1), groups=1, deformable_groups=4, bias=False)
        (relu): ReLU(inplace=True)
      )
      (dcn_bbox_subnet): SFTBranch(
        (conv_offset): Conv2d(4, 72, kernel_size=(1, 1), stride=(1, 1), bias=False)
        (conv_adaption): DeformConv(in_channels=256, out_channels=256, kernel_size=(3, 3), stride=(1, 1), dilation=(1, 1), padding=(1, 1), groups=1, deformable_groups=4, bias=False)
        (relu): ReLU(inplace=True)
      )
      (dcn_cls_score): Conv2d(256, 1, kernel_size=(3, 3), stride=(1, 1), padding=(1, 1))
      (dcn_bbox_pred): Conv2d(256, 4, kernel_size=(3, 3), stride=(1, 1), padding=(1, 1))
      (scales): ModuleList(
        (0): Scale()
        (1): Scale()
        (2): Scale()
        (3): Scale()
        (4): Scale()
      )
    )
    (box_selector_test): STFTFCOSPostProcessor()
  )
)
2022-02-11 16:59:18,467 stft_core.utils.checkpoint INFO: Loading checkpoint from log_dir/sun/model_0003500.pth
2022-02-11 16:59:18,619 stft_core.utils.model_serialization INFO: backbone.body.layer1.0.bn1.bias                                loaded from backbone.body.layer1.0.bn1.bias                                of shape (64,)
…
